data.pth (torch, 5503 bytes, 6 tensors)

l1.weight f4 [8, 61]
00000000: 4202 edbe 0904 573f 9c5a b5be 9101 b5be
00000010: 7eea 27bd aa43 6b3f 59c1 503f 1c0c edbe
00000020: f44f 253f d01c 643f 0840 243f cd65 38bf
00000030: 5c98 31bd 6c5a ddbe 4a7f 583f b022 e73c
00000040: de80 193f f9e5 173f 26bb a13d f361 1bbf
00000050: a816 723f 2b88 1a3f f6d1 2c3f 5eec 813e
00000060: 3f9e 5c3f 00d3 14bd 8241 3d3f d1f8 b4be
00000070: 53e5 8e3d 6d62 b5be 812d b5be 41b8 08bf
00000080: 7507 383e 5e38 633f b5c6 5a3f 467c f63e
00000090: 4cfc 263f 7eee d43e 28dd d13e 36ae 2e3d
000000a0: f5c7 583f b3cd 603f 7e89 01bf d827 363f
000000b0: 9071 383f 2a2d 0f3f 667d ce3d 800c d33e
000000c0: 7af8 283f 2882 013f 63be 193f 3262 523f
000000d0: f031 0bbf 4729 a0bd 9c5c 69be 231e 0d3f
000000e0: 2bbc 09be 1236 953f e680 383f 0e9a 663e
000000f0: 26ab 0cbf 0760 d7be 14fa 42bf 3b3a de3e
00000100: ac6b 063f ba6f 3f3f 4fba 573f 2388 4b3f
00000110: 73d9 fbbd f874 5bbf 6bc9 1c3f 6931 993e
00000120: 01d5 633f 504e 383f 5204 293f a127 373f
00000130: 9a61 c9be 28af 16bf e536 1c3e e2c8 d8bd
00000140: b39f 453f ab7f 293f cd65 3a3f 3a0b 9abd
00000150: 394a 483f 8ab6 31bf bc5d 383d 11f5 573e
00000160: 8186 6e3f 503e 90be eb36 5b3f fca3 543f
00000170: 2497 513f 05fa 193d d360 823f 1465 fa3d
00000180: 1942 323f fc52 e8bd f587 2a3f 1340 e6be
00000190: 1b7b 53be a867 5a3f ab7a 3ebf 6aa1 ddbe
000001a0: ebac 5fbd d290 3abe 3daa 873e 0999 c93d
000001b0: 3707 c0be b15d 8b3d cc9c b23e 7b65 093f
000001c0: 2dd8 6d3f d8b0 56bf 70d5 1ebe 6724 143f
000001d0: ed9d 6d3e 4f9d aabd b706 d83e 6288 c73e
000001e0: 951a f73d 1ebe d9be 2a0e 453f ebc2 533f
000001f0: 4359 303f 1ab5 3c3f 07d6 31be fe30 46bf
00000200: 0b69 44bf 4f2a 943f fb49 943f 4ebb de3e
00000210: b144 20bf b5c1 d0be 2831 dcbe be8e 7abd
00000220: 6598 81bf 56a1 913f d0ce 85bf e0dd 273f
00000230: b057 693f dfd2 e0be c493 f5be 13c5 28be
00000240: 89f5 563f 7e72 89bd c4c2 85bf 3fb2 bb3e
00000250: ebe8 0abe b53c fabe 11fa 323f 5c86 0fbf
00000260: 21b1 1ebf 5ded 8ebe b872 e03e fc60 af3e
00000270: 57ae 86be a442 41bf dc08 27bd ee24 d4be
00000280: d9aa 2cbf 17a6 1f3f 155d 56be 37e0 4b3f
00000290: 8be7 14bf c127 5c3f 12b0 c13d cbba 183f
000002a0: 6c8a 8a3e 9bed 52bf 2fbc 61be 6987 ef3e
000002b0: 17b4 21be 5469 fdbe 122c ab3f faf7 583f
000002c0: 6740 abbe 7477 183f cf56 b33f 2117 cdbe
000002d0: a78b b1bd 31eb 183f 706a 02bf 0352 83be
000002e0: ac01 10bf f3c1 433e 0bcc 45bc 5d91 313f
000002f0: b767 2d3f a489 0c3f 3853 10bf ce44 7fbf
00000300: 571e dd3e 3e6e 193f f844 d43d b265 663e
00000310: c8f3 593e a56a 5d3f 2c77 18bf d689 8e3f
00000320: 106d 00bf 0320 acbe 88d0 4d3f 5375 483f
00000330: 767b e63e bc5a d0be 792e 8f3e 0e77 a13f
00000340: 840d 123e 7719 9c3e 57da 663f 87b6 093f
00000350: cec3 5c3f 4711 653f 533a e53d d6cf 143e
00000360: 4c23 8bbd e0e7 0c3f 6963 ff3e 9fb4 013f
00000370: e1d7 b23e a84a 4e3f 6afd 2b3f 4d34 013f
00000380: 8638 29bf 5fe8 49be a9e2 10bf 957b c33e
00000390: d68c b2be f76e 5c3d 94cf 4e3f 6656 1b3f
000003a0: 37ee a8be 4253 ec3e 0379 473f bd69 1c3f
000003b0: af6d 203f 0399 fc3e fd92 fdbe 2d0a 12bf
000003c0: 562c 0e3b e3ca aa3e f809 1f3f 91a8 17be
000003d0: 7af5 103f 6fd9 a73e 9df4 573f 210f 1a3f
000003e0: 81b3 f13d f78d 24bf 3fd8 29bf 349e 21be
000003f0: c18f 883f be8b 46be 4b3b 54bf 9aba 373f
-0.46290785 0.8399053 -0.35420692 -0.35352758 -0.040995114 0.9190012 0.81545025 -0.462983
0.64575124 0.89106464 0.64160204 -0.72030336 -0.04335819 -0.4323305 0.8456923 0.028214782
0.5996226 0.59335285 0.07897024 -0.60696334 0.9456582 0.60364026 0.67507875 0.25375646
0.86178964 -0.036334038 0.7392808 -0.35346082 0.06977334 -0.35426655 -0.3538628 -0.5340615
0.17971595 0.88757885 0.8545945 0.48141688 0.65228724 0.41588205 0.4098904 0.04264661
0.8468011 0.8781387 -0.5060042 0.71154547 0.7204828 0.5592829 0.100825116 0.41220474
0.66004145 0.5058923 0.6005613 0.82181084 -0.54373074 -0.07820373 -0.22789234 0.5512411
-0.13450687 1.1657126 0.72071683 0.22519705 -0.5494865 -0.4206545 -0.7616284 0.434038
0.52508044 0.74779856 0.8426866 0.79504603 -0.122973345 -0.85725355 0.6124484 0.2992051
0.88996893 0.71994495 0.6602222 0.71544844 -0.39332277 -0.5886102 0.15255316 -0.1058519
0.77196807 0.6621043 0.72811586 -0.075216725 0.78238255 -0.6941916 0.045011267 0.21089579
0.93173987 -0.2817254 0.85630673 0.8306272 0.8187125 0.037591953 1.0185798 0.1222631
0.69632107 -0.11343953 0.66613704 -0.4497076 -0.2065243 0.85314417 -0.74405926 -0.43287212
-0.054608267 -0.18219307 0.2649707 0.09843642 -0.37505504 0.068049796 0.34885252 0.5367047
0.92907983 -0.8386359 -0.15511107 0.57868046 0.23204775 -0.083307855 0.42192623 0.3897124
0.12065617 -0.4252786 0.7697474 0.82719296 0.688862 0.7371384 -0.17366801 -0.77418506
-0.7672278 1.1575412 1.1585077 0.43502277 -0.62604815 -0.40772787 -0.43006253 -0.061171286
-1.0124632 1.1377361 -1.0453739 0.6557293 0.91149426 -0.43910882 -0.479643 -0.16481428
0.83968407 -0.06711291 -1.0450063 0.36659428 -0.13565414 -0.4887444 0.6991282 -0.5606439
-0.6198903 -0.2791547 0.43837523 0.3425368 -0.26304886 -0.7549231 -0.040779933 -0.41434425
-0.6744819 0.6236281 -0.20933945 0.79639 -0.58165807 0.8599816 0.09457411 0.59660023
0.27058733 -0.8239381 -0.22044443 0.46782997 -0.15791355 -0.4949442 1.3372824 0.8475338
-0.33447573 0.5955727 1.4010867 -0.40056708 -0.08669215 0.59733874 -0.5094366 -0.25648507
-0.5625255 0.19116955 -0.012072573 0.6936243 0.6773638 0.5489752 -0.5637698 -0.9971436
0.4318721 0.5993384 0.10364717 0.22499731 0.21284401 0.8649085 -0.5955684 1.1135814
-0.50166416 -0.33618173 0.8039632 0.7830402 0.45016068 -0.40694225 0.27965143 1.2614458
0.14262968 0.30488178 0.9017691 0.5379414 0.86236274 0.8947949 0.11192765 0.14532408
-0.06793842 0.55041313 0.4988053 0.5066623 0.34930328 0.80582666 0.67183554 0.5047043
-0.6610187 -0.19717549 -0.56595856 0.38180223 -0.34873074 0.05381676 0.8078549 0.6067871
-0.32994244 0.4615727 0.77919024 0.61098844 0.62667364 0.4933549 -0.49526206 -0.57046777
0.0021693907 0.33357915 0.62124586 -0.14810397 0.5662457 0.32783076 0.84357625 0.60179335
0.11801816 -0.6427912 -0.6634559 -0.15783006 1.066887 -0.19389245 -0.82902974 0.71769106

l1.bias f4 [8]
00000000: 62dc b43e 987e 5b3f 5cc7 853f 8a58 7f3f
00000010: 591f 443f 11ba 2f3f af9b 91bd d311 9b3f
0.3532439 0.8574004 1.0451465 0.99744475 0.7661033 0.6864329 -0.071097724 1.2114815

l2.weight f4 [8, 8]
00000000: a7a2 c63f 1ec3 e93f 792a 72be a741 d03f
00000010: 9b73 6cbf 054b f23e 13f2 103e 8b66 713f
00000020: 8a53 893f 07d1 22bf fd9a 0f40 17ef 7dbf
00000030: e66b e13e 670b 95be 7e78 523e 427b f63f
00000040: f6c7 9dbe a556 6b3e 28b9 2bbe 290d f0bd
00000050: 05c0 53be 9419 5dbe 41c8 39be 033d b33d
00000060: 6898 72be b062 acbb 2ab9 e1bd e9f8 e0bc
00000070: 2694 2fbe be77 253e f636 713e ce14 1e3e
00000080: 84b2 23bf 68af febe 99d1 dcbe d80a cf3e
00000090: 8380 213f bc04 623f a321 58bd 33af f63f
000000a0: 68b8 df3f bdbf af3e c6ab 81bf 2fb4 c93f
000000b0: bb9f e1bf ae5a 823f 4415 33bd 11ea 633f
000000c0: a1ba 07bf 8168 aebf 06cb 263f db3c 803f
000000d0: 73bb 8f3d 010c 0640 832d 8f3e 0622 2a3d
000000e0: e05c 98bf d825 c43f d7c0 4b3e 4d67 ab3f
000000f0: 69d1 123f e44e d2bf e3d2 b43d 1ebc 043f
1.5518388 1.826267 -0.23649015 1.6270036 -0.923639 0.4732286 0.14154844 0.94297093
1.0728619 -0.636002 2.2438347 -0.9919295 0.44027632 -0.29110262 0.20553777 1.9256365
-0.3081662 0.22982271 -0.1676985 -0.1172126 -0.20678718 -0.21591789 -0.18142797 0.087518714
-0.23690951 -0.005260788 -0.11021645 -0.02746244 -0.17146358 0.1615896 0.23556122 0.15437624
-0.6394427 -0.497432 -0.4312866 0.4043796 0.6308672 0.88288474 -0.052766453 1.9272217
1.7478151 0.34325972 -1.0130546 1.5758113 -1.7626871 1.0183923 -0.043721452 0.8902903
-0.5301915 -1.3625642 0.6515354 1.0018572 0.07018175 2.0944827 0.2796441 0.041536354
-1.1903343 1.5324049 0.19897781 1.33909 0.57350785 -1.6430326 0.08829286 0.51849544

l2.bias f4 [8]
00000000: 24c2 94bd 33d5 a53e 624c b9be 2438 c1be
00000010: bf1d 873e d88d 9a3e d547 4f3f d22b 8a3f
-0.07263592 0.3238922 -0.36191088 -0.37738144 0.26389882 0.30186343 0.8096898 1.0794623

l3.weight f4 [11, 8]
00000000: db55 793d 4139 d8be 021f 30bd 133b 64be
00000010: 585f c63e 5332 063f 6912 c8bf 00cf ae3e
00000020: 28c8 1ebf 9df4 3b3f 6e58 873e 16fa 9c3e
00000030: 9997 193f 7d13 0cc0 16d2 a9bc 0499 85bf
00000040: 4a53 5dbe 6498 7b3e 65ba e73d 6972 32be
00000050: 9240 073f db83 09c0 f51b 55bf 2956 483f
00000060: cfd6 13c0 9c90 553f 233f ff3d 2dc3 32be
00000070: 33bf 0fbf 8535 a3bf c725 883c 6a8c 443f
00000080: 9420 fe3e b582 bfbf f29b a63e a9ad 823e
00000090: 41b7 e2bf 4d9f 233f 43dc 88bf 8e95 d03d
000000a0: afcf 733c bc8a 6abf 4970 df3c 5aae 87be
000000b0: 74c4 983d 2ab9 3a3f 3efe 523e 981f 27bf
000000c0: c56a 913e 8a17 c7bf 54f8 3a3e 67cc 05bd
000000d0: 6ab9 d53c e207 5dbf d2ed 55bf 667f aa3f
000000e0: 8762 003f 8c84 ebbf b53c 593e 1371 ffbd
000000f0: 28f5 b5bf fc6f 463f 749e 5a3e 855b d8bf
00000100: 9db2 96bf ce2e 7bbf d737 3abe c3bc 68be
00000110: 58fe 6c3f 54b2 d2bf 1c3f 883f b57a 14bf
00000120: 5151 8c3e 86d4 cb3e da54 963d 1f13 aabe
00000130: ecd9 98bd cae4 d0be 0d11 b7bf a91d f9be
00000140: 6235 43be f69d 363d ec78 0dbe 4bff 54be
00000150: 53d2 d53d 60de aabe 7ee5 163f 0d72 0dbf
0.060872894 -0.4223118 -0.04299832 -0.2228816 0.38744617 0.5242054 -1.5630618 0.34142303
-0.62024164 0.73420125 0.26434654 0.3065955 0.59996945 -2.1886895 -0.02073006 -1.0437322
-0.21613804 0.24569851 0.11314849 -0.17426457 0.528329 -2.1486728 -0.83245784 0.7825647
-2.3099859 0.8342378 0.12463214 -0.17457266 -0.5615112 -1.2750708 0.016619576 0.76776755
0.4963423 -1.4961764 0.32540852 0.25523117 -1.7712175 0.6391495 -1.0692219 0.10184775
0.014881059 -0.9161794 0.027275221 -0.26500207 0.074593455 0.7293879 0.20604798 -0.65282583
0.2840177 -1.5554059 0.18258792 -0.032665636 0.026089389 -0.86340153 -0.8356601 1.3320129
0.5015034 -1.8399825 0.21214564 -0.12472739 -1.4215441 0.77514625 0.21349508 -1.690293
-1.1773258 -0.98118293 -0.18185364 -0.22728257 0.925756 -1.6460671 1.064426 -0.57999736
0.2740579 0.3981058 0.07340403 -0.33217713 -0.0746344 -0.40799552 -1.4302078 -0.4865544
-0.19063333 0.044584237 -0.1381566 -0.20800512 0.10440507 -0.33372784 0.5894393 -0.5525215

l3.bias f4 [11]
00000000: 35cf 1fbe c5ac a2be 295d a0bc c2df b83e
00000010: b814 223c db12 63be a785 083f ad30 99bc
00000020: cdaa a43e 8463 28be 0719 7bbe
-0.15606387 -0.31772438 -0.019575672 0.36108214 0.009892635 -0.22175162 0.5332894 -0.018699968
0.3216156 -0.16444212 -0.24521266
